Winter/IMU_Code_TF/gesture_model.tflite (tflite, 185064 bytes, 6 tensors)

sequential_3/dense_10/MatMul/ReadVariableOp/transpose f4 [15, 50]
000000 d0 3a ef 3d f0 de 83 be 8c 16 bc bd 8a b5 53 be
       0.116811395 -0.25756025 -0.09183988 -0.2067472
000010 06 fb 38 3c f2 4c 0b be be 4a 8a bc 47 5f ca bd
       0.011290317 -0.13603571 -0.016881343 -0.09881454
000020 73 f9 4d be 54 64 20 3e f4 54 b4 bd 1f 18 48 3e
       -0.20114689 0.15663272 -0.08805266 0.19540451
000030 a9 11 f6 3c e9 01 93 bc de a4 98 be bc b0 1b bc
       0.030037718 -0.017945247 -0.29813284 -0.009502586
000040 f0 b2 85 3d 4b f7 90 3d 2c 91 b1 3d 4a 40 97 be
       0.0652827 0.070784174 0.086702675 -0.29541236
000050 f2 8c 83 3e 7c 34 8a 3e d2 04 38 3e 06 40 95 3e
       0.2569347 0.26993167 0.17970589 0.29150409
000060 ef 0a 68 3e 1a b2 e4 bd 71 97 08 be 62 86 58 3e
       0.22660421 -0.11166783 -0.1333902 0.21145013
000070 63 a2 54 3e a4 95 84 be 1b 15 19 3e 1e 67 c7 3c
       0.2076507 -0.25895417 0.14949457 0.024341162
000080 e7 58 9b be dd 73 92 3e 11 97 86 3e 45 5d 87 3e
       -0.30341265 0.28604022 0.2628713 0.26438347
000090 17 df 33 be c6 f6 02 3e a1 5b 5d be 64 28 e9 bd
       -0.17565571 0.12789449 -0.21616985 -0.11384657
0000a0 31 88 21 3e e8 11 21 3e 7b 8c 94 3d f8 95 2b 3d
       0.15774609 0.15729487 0.07253357 0.04189107
0000b0 94 68 8e 3e b9 f4 48 be 58 47 9b 3d d4 61 67 3e
       0.27814162 -0.19624604 0.07581967 0.22595912
0000c0 6c 30 0c 3e 96 0c 69 be 99 08 1d 3e df 05 29 3c
       0.13690346 -0.22758707 0.15335311 0.010316341
0000d0 fd fb a8 3d a9 21 5f be 60 aa 83 3b 11 95 5b 3d
       0.08251188 -0.21790184 0.004018113 0.053608958
0000e0 04 e5 8e be 6c e2 a6 bd 2d 79 ca bd 4b b3 78 3e
       -0.279091 -0.08148655 -0.09886394 0.24287145
0000f0 74 cd 7b 3c 27 97 82 3d 91 7e 92 3e f2 8e cb bd
       0.015368808 0.06376486 0.28612188 -0.09939374
000100 58 d3 50 3d e6 03 65 3e bd d4 1e bd 26 7e 84 3e
       0.050982803 0.22364768 -0.0387771 0.25877494
000110 b7 1c 90 3d 13 e1 58 3e 63 9b 26 3e 7a 72 5c be
       0.07036727 0.21179609 0.16270213 -0.21528044
000120 6b 8d f3 bd 46 f9 1b 3e 42 b4 67 3e 92 9f 51 3d
       -0.11892208 0.15231809 0.22627357 0.05117757
000130 0e 6a 2a be 44 a1 10 bc 36 48 15 3e cb 59 9e 3c
       -0.16642019 -0.008827511 0.14578328 0.019329926
000140 78 c4 99 3d 37 31 14 3d 39 d8 ee bc 50 bb 89 3e
       0.075081766 0.036179747 -0.029155837 0.2690072
000150 31 6d 39 3c 5d c3 9d 3d 94 94 4d 3c 91 86 49 be
       0.011317537 0.07703278 0.012547631 -0.1968024
000160 c5 66 3e be a9 f9 56 3e cb 55 8f 3e 7c 1e 1b be
       -0.18593891 0.20993675 0.27995142 -0.15148348
000170 2a c3 41 be d7 99 a0 3d 53 e2 95 3e e4 72 93 3e
       -0.18922105 0.078418426 0.29274234 0.28798592
000180 ca 1e b9 3d 1b d0 2c bd 21 02 be 3c ff f8 f5 bc
       0.09039076 -0.042190652 0.023194375 -0.030025957
000190 bc e7 79 3e c4 de ae 3b 11 0a 69 be 78 1a 6c bd
       0.24404806 0.0053366143 -0.22757746 -0.05764243
0001a0 b3 62 32 3e cf b1 bf 3d 75 1f 1b 3e 9f 88 18 3e
       0.17420463 0.09360086 0.15148719 0.14895867
0001b0 f2 5b 14 be c8 34 3a be 94 3a 13 3a 13 13 91 3c
       -0.144882 -0.18184197 0.0005616334 0.01770929
0001c0 ef 5a b3 bd 57 d5 1c be 60 c9 27 be 3e e1 04 3e
       -0.087575786 -0.15315758 -0.16385412 0.12976548
0001d0 45 eb 91 be fe 3d 1f be 7e dc 83 3e e7 f5 66 bd
       -0.2849981 -0.15550992 0.2575416 -0.056386854
0001e0 92 04 25 be ec 7e a3 bc 69 aa 12 3e 50 28 f0 3d
       -0.16115025 -0.019957982 0.14322819 0.11726439
0001f0 b9 60 85 be e2 dc 70 be 7d 64 52 3d 55 4e 56 be
       -0.26050356 -0.2352176 0.051365364 -0.20928319
000200 ab 64 83 3e 57 49 a0 bd 6f c7 35 3e 8d 93 09 3e
       0.2566274 -0.078264885 0.17751859 0.13435192
000210 f8 ff fb 3d a0 e1 4b 3e 3d 34 83 3e a9 47 85 be
       0.123046815 0.19910288 0.25625792 -0.26031235
000220 0b b0 36 be 6f be f8 3d 3c 70 6a 3e ec 83 52 be
       -0.17840593 0.12145697 0.22894377 -0.20558137
000230 8b 89 80 3d 5c 75 61 3d 21 b8 09 bd c4 f0 59 bd
       0.06276234 0.055043563 -0.033622865 -0.053208128
000240 9b dd 15 3e 17 c2 ca 3d 0c 51 84 3e 6a 23 8f 3e
       0.14635317 0.09900301 0.25843084 0.27956706
000250 17 29 1c 3e 84 44 93 3e ee 4e 0a bc 4a 38 e8 bd
       0.1525005 0.2876321 -0.00844167 -0.11338861
000260 ef 39 18 be 08 52 4d bc 02 3f 91 3e f8 5b 1d bc
       -0.1486585 -0.012531765 0.28368384 -0.009604447
000270 fb 99 59 be bb 83 2b 3e b9 38 6c be 08 8b 69 3e
       -0.21250145 0.1674947 -0.23068513 0.22806942
000280 44 94 b2 3d fe f3 41 be 5a 25 2b 3e 2d 6a 10 bd
       0.08719686 -0.18940732 0.16713467 -0.035257507
000290 8f 4f 2e bc 70 99 15 bd 38 31 e8 bd 93 15 fe bc
       -0.010639085 -0.036523283 -0.11337513 -0.031016147
0002a0 9c c1 27 be 14 4e 0d 3e a8 6b 80 be bd cd 97 3d
       -0.1638245 0.13799316 -0.25082135 0.07412288
0002b0 e7 f5 d5 3d 55 49 6b be 62 9b 79 be ee b8 7a 3e
       0.10447293 -0.22977193 -0.2437568 0.24484608
0002c0 96 41 44 be ae 25 3b 3e c4 0f c2 bd 75 25 5d be
       -0.19165644 0.18276092 -0.09475663 -0.2159632
0002d0 f3 95 83 bc 0e fc 05 be a7 5e 85 3e 71 4d 60 be
       -0.016062712 -0.13084432 0.26048777 -0.21904542
0002e0 de 9c a0 bd 85 66 e6 3d 5c 59 8d 3d ac 93 59 bc
       -0.0784242 0.11250023 0.069018096 -0.013279837
0002f0 b5 87 87 3d 80 5f 4f bd 5a 2b 40 be 0a ea 78 3d
       0.06617681 -0.050628185 -0.18766537 0.060770072
000300 fe d6 fb 3d 69 ed 62 be ed 07 b0 3d 64 7d 1a bd
       0.12296866 -0.22160877 0.08595262 -0.037717238
000310 ec 78 1d ba 08 43 39 3e 26 35 c6 bc 65 fe 04 3d
       -0.00060070935 0.18091977 -0.024195265 0.032469172
000320 12 9d 91 3e ba e1 86 3e a9 19 27 3e f5 29 b1 3d
       0.28440148 0.2634409 0.16318382 0.08650581
000330 93 75 36 be df 00 03 be 9d 4f 2f be 32 71 8a bc
       -0.17818289 -0.12793301 -0.17120214 -0.016899679
000340 58 7e 77 be da 4a 6d be 66 b6 cd 3d 43 ed b4 bc
       -0.2416929 -0.23173085 0.10044555 -0.022085791
000350 c4 40 42 3e 48 5e 0b be 83 5c f7 3c 32 9a 20 3e
       0.18970019 -0.13610184 0.03019548 0.15683821
000360 1a 53 87 be 7b 20 89 be 05 4d ac bd 41 7f 83 be
       -0.2643059 -0.26782593 -0.08413128 -0.25683025
000370 c6 e9 cd 3d 9f 9d 45 3d 90 b4 82 3e 7c 86 90 3e
       0.10054354 0.048246022 0.25528383 0.28227603
000380 28 f7 c6 3d 73 9f 12 3d 4e f6 ff bc e1 5f d4 bd
       0.0971511 0.035796594 -0.031245377 -0.1036985
000390 d7 36 2e 3e 75 b9 33 3e e9 fa 8b be c4 fc 32 bd
       0.17013107 0.17551215 -0.27339867 -0.043698087
0003a0 24 7d 5b be b9 a0 68 be a8 7a 85 3e cc de 57 be
       -0.21434456 -0.22717561 0.26070142 -0.21081084
0003b0 70 4b 05 3d 68 37 05 be 28 ef 2b be f5 14 85 bd
       0.032542646 -0.13009417 -0.1679045 -0.06498138
0003c0 f1 3c be 3d 4a d9 8f 3e f1 77 23 3d 59 3a 4b bd
       0.092889674 0.28095466 0.039909307 -0.04961619
0003d0 2e c2 ce bb f4 9d 8a be 70 83 e0 3d dd ed 6e 3e
       -0.006309769 -0.27073634 0.1096257 0.23332925
0003e0 ec 9d c8 bd 6d 9c 67 3e d2 28 0b 3e b9 fd bb 3d
       -0.09795746 0.22618265 0.1358979 0.09179253
0003f0 53 77 a3 3d cd 1e 4a be 48 96 00 bc ab fd 52 3d
       0.07981744 -0.19738312 -0.00784833 0.051511448

sequential_3/dense_10/MatMul_bias f4 [15]
000000 4e a1 2e bc 78 7a 1b 3c b6 5b ff bb bc 26 0a bb
       -0.010658575 0.009489648 -0.007792915 -0.0021080216
000010 ec 5b c5 3b e7 65 c8 bb 88 75 4b 3b ca 6e fd bb
       0.006022921 -0.0061156633 0.0031045396 -0.0077341544
000020 c3 f3 93 3b 14 5d 1e 3b 86 fe ab 3b 86 e7 cb bb
       0.0045151426 0.0024164366 0.0052488474 -0.006222668
000030 c0 74 5c ba 38 f0 15 3c 5a 68 be 3b
       -0.0008409731 0.009151511 0.0058107795

sequential_3/dense_11/MatMul/ReadVariableOp/transpose f4 [3, 15]
000000 3b 7a 6e 3e 19 89 a3 3e ab cb a0 be 7c 7d fd 3e
       0.23288815 0.31940535 -0.31405386 0.495098
000010 c1 d3 08 be 5f d7 1b be 2b 41 c0 3e b6 3b 9e 3d
       -0.13362028 -0.15218876 0.3754972 0.07726233
000020 73 8a cc be 53 d6 a6 be b2 86 f1 3e 66 84 88 be
       -0.39949378 -0.3258539 0.47173077 -0.26663512
000030 1c 17 d0 bd f6 59 74 3e eb a6 c7 3e db 29 37 3e
       -0.10160658 0.23862442 0.38994536 0.1788706
000040 82 15 8b be d6 68 29 be cd 2c 05 3f 48 8c ab 3e
       -0.27164847 -0.16543898 0.52021486 0.33505464
000050 87 68 af 3e e2 b1 4f bd a2 ca 04 bf 1c e3 1f 3e
       0.34259436 -0.05070675 -0.51871693 0.15613979
000060 57 65 e9 3e 4f 32 15 3e e8 43 f1 3e 06 9b 58 3e
       0.4558513 0.14569972 0.4712212 0.21152887
000070 ea b2 05 3f 81 74 78 3e c7 74 87 3e d7 38 c9 be
       0.52226126 0.24263193 0.26456282 -0.39301178
000080 ac 46 ce 3e 62 f3 a4 3e ae 5b c4 3d 6a e2 0d 3e
       0.40288293 0.32216936 0.09587799 0.13855901
000090 d1 d1 8e 3e da 13 2e 3d b3 3f c5 be 44 75 06 3f
       0.27894452 0.0424994 -0.3852516 0.52522683
0000a0 e1 ac 13 3e a3 61 5c 3e bf 6e 69 be c0 46 95 3e
       0.14421417 0.2152162 -0.22796153 0.2915554
0000b0 dc 00 28 3e
       0.16406578

sequential_3/dense_11/MatMul_bias f4 [3]
000000 90 7b c9 3a 6e 79 e5 3a 93 c2 96 bb
       0.0015371908 0.0017507502 -0.004600832

sequential_3/dense_9/MatMul/ReadVariableOp/transpose f4 [50, 900]
000000 e6 4e 98 3b 6f b7 67 bb 21 49 8c 3c c5 f6 95 bd
       0.0046480773 -0.0035357138 0.017124714 -0.07322458
000010 81 32 da 3c 4f 1d 8f 3d 12 03 8c bc 7a f1 9e bc
       0.02663541 0.06988012 -0.017091308 -0.019402254
000020 80 37 5f 3c 50 bd 88 3d e9 36 5d bc 3d 83 b4 3c
       0.013624072 0.066767335 -0.013501861 0.022035236
000030 5b 36 6c bd e1 1d e4 3c 45 b4 30 3d 9d 1e 4f bd
       -0.057669025 0.027846279 0.04314067 -0.050566304
000040 c0 9f 33 3d a8 89 8d bd d6 09 b7 3d 8e df 9b bc
       0.04385352 -0.069110215 0.08937423 -0.019027498
000050 d5 18 99 bd a9 17 95 bd e0 0a 3b bc 9b b6 10 bd
       -0.074754395 -0.072799034 -0.011416167 -0.035330396
000060 e4 b7 59 3d 8a 54 f1 bc cb 95 32 bc e0 b7 5a 3b
       0.053153887 -0.029459257 -0.010899971 0.0033373758
000070 78 dc 66 3d 7c fa 23 bd a7 52 84 3c 24 c2 8f 3d
       0.0563626 -0.040033802 0.016152693 0.07019451
000080 25 e7 c7 ba bc a4 94 bd 65 2b a1 bd b1 53 c6 bc
       -0.0015251382 -0.07257983 -0.07869605 -0.024209829
000090 69 0c e6 3a 30 af 00 3d 12 69 4a bd da f9 83 3d
       0.0017551306 0.03141707 -0.04941661 0.0644414
0000a0 22 aa 84 bd 52 37 66 bd 8b eb 4d bd 06 91 ae 3c
       -0.06477763 -0.0562051 -0.05027346 0.021309387
0000b0 32 73 1e bb 36 66 54 bd 30 5d 65 3d 20 d2 d6 3c
       -0.0024177548 -0.05185529 0.055997074 0.026223242
0000c0 60 14 0b bd 04 67 80 bd 66 d3 37 bd 61 79 a3 bb
       -0.033954978 -0.06269649 -0.04487934 -0.0049888347
0000d0 cc bc 61 3b dc 16 52 bd 5b 3e 96 bd 95 d5 48 bc
       0.0034444807 -0.05129133 -0.07336112 -0.012257953
0000e0 6e 81 e0 3c e4 8e 44 bd c7 b3 67 bd dc e2 15 3c
       0.027405467 -0.047987834 -0.056567933 0.009148326
0000f0 69 89 94 bc 5c 3b 84 bc e0 28 74 bd 14 28 56 bc
       -0.018131929 -0.016141586 -0.059609294 -0.013071079
000100 ee 43 8f 3d 66 23 35 bd 83 26 88 3a b7 74 62 3d
       0.069953784 -0.04422321 0.0010387454 0.05528709
000110 92 bb 34 3c f9 81 5d bd 99 15 a2 bd 9e 15 1b 3d
       0.011031048 -0.05407903 -0.07914276 0.037862413
000120 18 25 9e 3d f8 ab 37 3d 2b f8 a3 3d 01 27 5d 3d
       0.07721919 0.044841737 0.08006319 0.053992275
000130 6c bf 8e bc d3 40 9d bd 10 21 0b bd d0 e5 b0 3d
       -0.017425261 -0.0767838 -0.033967078 0.08637583
000140 a3 bf 14 bd 70 fc 81 bd ca 42 30 3c e4 0b 51 bd
       -0.03631557 -0.06346977 0.010758111 -0.05103673
000150 05 dc 47 3c 47 3d df bc 2a 19 82 3d 84 35 07 bd
       0.012198453 -0.027250899 0.06352456 -0.03301002
000160 c0 bf 8e bd 0c 01 1c ba f0 43 d9 3a b5 5a 46 bd
       -0.06970167 -0.0005951084 0.0016576033 -0.04842635
000170 74 d3 05 3c c4 49 60 3c cf 23 63 bd 22 42 f0 3c
       0.00816809 0.013689462 -0.05545407 0.02932841
000180 ca a3 db bb 98 4e d6 3c 41 c2 be 3b 72 92 fe bb
       -0.006702875 0.026160523 0.0058214967 -0.0077689225
000190 57 5e 6d bc d7 ad 94 bc e3 85 1b 3d a6 3f be 3c
       -0.014487824 -0.0181493 0.03796948 0.02322371
0001a0 4e 0f 3c bb 20 36 82 3d c8 59 66 3d d4 93 bd 3c
       -0.0028695646 0.0635798 0.056237966 0.023141779
0001b0 a3 a9 f2 3c 15 3a 0a bd 29 b2 3d 3c b2 cb 3c 3d
       0.029621905 -0.033746798 0.011578121 0.046092696
0001c0 43 30 5a bd ad 61 b7 3c 47 a7 5b 3d 98 b6 43 bb
       -0.053268682 0.022385443 0.053626325 -0.0029863473
0001d0 47 7b 91 bd f4 50 8b bd 72 84 8a 3d b4 af 8b 3d
       -0.071035914 -0.0680255 0.06763543 0.06820622
0001e0 fc 8c 9e bd c4 80 78 3d e2 59 6e bd 65 15 45 3d
       -0.077417344 0.060669675 -0.058191188 0.048116107
0001f0 20 8b 65 bc 8f 2f dd 3c 6a b9 74 bc e1 27 a1 bd
       -0.014010221 0.027000217 -0.014936784 -0.078689344
000200 f4 38 5e bd 67 e2 14 3d ce 96 9c 3d 06 79 9b 3d
       -0.054253533 0.036348727 0.07645951 0.07591443
000210 24 ce 04 bd ff 5e 5b 3d 54 6d ab bb ff e2 89 bd
       -0.032423154 0.053557392 -0.005231539 -0.06732749
000220 85 16 a6 bc 56 5e 5a bc 95 fa d5 bc 44 4e 06 bd
       -0.02027441 -0.0133281555 -0.026120463 -0.032789484
000230 04 e5 84 3c 90 8f 9a 3d f8 9d 88 bd 62 85 aa 3c
       0.016222484 0.075469136 -0.06670755 0.020815555
000240 94 42 26 bd a2 01 6d bd 2e 0a a8 bb 80 89 50 bd
       -0.040590838 -0.057862885 -0.0051281666 -0.05091238
000250 1a ce f5 bb cc b5 77 bc a5 b5 04 bd 1e b0 a1 bd
       -0.007501376 -0.015119027 -0.032399792 -0.0789492
000260 40 1a 8e bd c5 1f 9d 3d 34 e9 86 3d f8 40 4d bb
       -0.069386005 0.07672075 0.06587449 -0.0031319242
000270 d3 f2 6d 3d 0b 68 13 bd 40 79 ea bb 2c 04 40 bd
       0.058092903 -0.035987895 -0.0071555674 -0.04687898
000280 b2 ad 82 3d 7f 86 33 bd 5c ac 0b bd d8 5e 35 bd
       0.06380786 -0.043829437 -0.03409992 -0.044279903
000290 92 0c 47 3d 1e dc 9c bd db eb 7d 3d b7 ab bd 3a
       0.048595972 -0.076591715 0.061992507 0.0014470731
0002a0 84 5e d0 3c 1b 6f 42 bd 6a 6b a6 3d f5 b1 04 3d
       0.025435694 -0.04746924 0.08125956 0.032396276
0002b0 f9 8d 12 3d 7e cc 25 bc 9a 60 d4 39 48 f3 14 3d
       0.035779927 -0.0101195555 0.00040507765 0.036364824
0002c0 2f 81 b4 3d 1d 82 34 bd e3 bd 6c 3c 8a c2 4d bd
       0.08813702 -0.0440694 0.014449569 -0.050234355
0002d0 d2 e4 e9 bc ad e1 53 bd 8e 6c da 3c 81 f1 7d 3c
       -0.028551493 -0.051728893 0.026663091 0.015499474
0002e0 92 9f a7 3c ca 1d 3a 3c 60 8e 23 3d d7 3e a6 bc
       0.020461831 0.011359641 0.0399307 -0.020293636
0002f0 b0 ff 57 3d e3 58 5a bd 36 2b 89 bd 5e e3 df 3a
       0.052734077 -0.053307425 -0.06697695 0.001708131
000300 9a 86 6a bd 87 f1 36 3d a2 f5 5d 3d 38 1f 09 3d
       -0.057257272 0.044663932 0.05418933 0.03347704
000310 fc 6a 87 3d 5f db bb bc cb 28 53 bd 8d 1e 94 3c
       0.066122025 -0.022931753 -0.051552575 0.018080974
000320 6f 74 14 bd 0a 4b 64 bc 0c 09 a0 bd b0 d3 86 bd
       -0.036243852 -0.013933906 -0.078142256 -0.06583345
000330 4f 2a 87 bc bd 1c 6c 3c 56 15 c6 3c a7 c0 3b bd
       -0.016499666 0.014411149 0.024180096 -0.045838024
000340 3c a8 2a bd 01 2c 84 3c 6b 0a 65 3c 84 90 53 3d
       -0.041664347 0.016134264 0.013979535 0.051651493
000350 ad 68 6c 3d 80 3c bd bc 37 66 3d bd 1b 15 fd bc
       0.057717014 -0.023100138 -0.046240058 -0.030893853
000360 80 a9 ab 3d a6 7a cf 3c 9d 70 0d 3d bc df 32 3c
       0.08381939 0.025327038 0.034531225 0.0109176
000370 2c 98 75 3d f8 25 3d 3d 82 b8 8e 3d 35 20 ff 3c
       0.059959576 0.046178788 0.06968786 0.031143287
000380 54 e7 3a 3d 29 fd 7a bd 38 98 91 3d 14 dd 38 bd
       0.045630768 -0.06127659 0.071091115 -0.04513271
000390 43 7d 4f 3c a7 0d 17 bd 6d 42 3b bd bb 0c a3 bc
       0.012664142 -0.036878254 -0.045717645 -0.019903531
0003a0 ff 5b 3e bd 7f 3c 0a bd f0 cc 0f bd 66 fd 3e bc
       -0.046474453 -0.0337491 -0.035107553 -0.011657095
0003b0 79 ed 95 3d 04 3f 84 3d 6d c9 34 3d 69 49 01 3d
       0.07320685 0.06457332 0.044137407 0.03156415
0003c0 9a 75 b5 3c bb e1 85 3d 79 4c 5b bd 3a 7f 78 bd
       0.022150803 0.06537195 -0.053539727 -0.060668208
0003d0 bf fa 95 3b cc 46 4a 3d ce fe 06 3b de ce 1b bb
       0.0045770104 0.049383923 0.0020598653 -0.0023774425
0003e0 2e 1c 51 3d 8a 6a 90 3d 16 bb c7 3c 42 3f 4c bd
       0.051052265 0.07051571 0.024381202 -0.049865015
0003f0 9a d1 73 3d e0 cb 87 3d ec 7b 69 3c c5 e2 0c 3d
       0.059526064 0.06630683 0.014250737 0.03439595

sequential_3/dense_9/MatMul_bias f4 [50]
000000 1a d8 d0 ba 7e 5f a0 ba c8 ad 88 ba 28 56 8d 3b
       -0.0015933544 -0.001223549 -0.0010427767 0.004313249
000010 38 d2 99 bb 58 ca 10 bb 6c 7a 3e ba 02 4b 78 3b
       -0.0046942495 -0.0022093263 -0.0007266167 0.0037886505
000020 c6 af 02 3b 7c 67 df b9 60 2b 3c ba 44 ab e2 ba
       0.0019941195 -0.00042610976 -0.0007178094 -0.0017293473
000030 62 e3 4a bc 20 f4 8a 3b 3b 74 87 3b a7 49 a6 3b
       -0.012383314 0.0042405277 0.004133729 0.005074698
000040 b0 d9 8c bb 59 91 d4 3b fd a9 93 bb 2c 87 ea bb
       -0.0042984113 0.0064870534 -0.004506348 -0.007157227
000050 29 8a 8a bb ac ce 0f 3c a6 06 ea bb 86 4c b7 bb
       -0.0042278958 0.008777302 -0.007141906 -0.005593839
000060 d0 64 6c bb 1c 47 94 bc f2 a6 33 3b b0 e4 dc bb
       -0.003607083 -0.018100314 0.002741274 -0.006741129
000070 29 5a 4e bb 97 74 03 bc 7e c3 fb ba d2 b2 07 bb
       -0.0031486845 -0.008023403 -0.0019208041 -0.002070595
000080 60 09 25 bb 3d 3f cd 39 ef ec be 39 11 53 35 3c
       -0.002518259 0.00039147763 0.00036416153 0.011067168
000090 8e 1a 4a bc 9b 50 f2 3b fa b3 e1 39 ee d5 6f bc
       -0.012335433 0.007394863 0.00043049437 -0.014638407
0000a0 1e 11 f8 3a 94 fc af bb 87 28 ea bb 50 2c 5f 3c
       0.0018926 -0.005370686 -0.0071459445 0.013621405
0000b0 38 25 4f ba 95 1f ba 3a d6 87 83 bb a1 79 1b bc
       -0.00079019694 0.0014200086 -0.0040139956 -0.009489448
0000c0 2e 58 80 3c 52 88 2c 3c
       0.015667047 0.010530548
