Winter/IMU_Code_TF/gesture_model.tflite (tflite, 185028 bytes, 6 tensors)

sequential/dense/MatMul/ReadVariableOp/transpose f4 [50, 900]
000000 27 ab 78 3a c8 d5 6f bc bb 94 c4 3c 2f a4 97 bd
       0.0009485953 -0.014638372 0.023996701 -0.074043624
000010 55 52 d3 3c ab 91 8d 3d 8a 3d e1 bc 8c b9 fc bc
       0.025796095 0.069125496 -0.027495164 -0.030850194
000020 b9 b0 a5 3c d5 11 87 3d 71 7c 6a bc bd 39 ae 3c
       0.02022587 0.06595198 -0.014311896 0.021267766
000030 70 1b 8b bd ca 48 85 3c d4 b3 4a 3d d9 67 52 bd
       -0.06792343 0.01627006 0.049487904 -0.051368568
000040 dc 78 30 3d 13 25 8f bd 20 8f a2 3d 03 ec fe bc
       0.04308401 -0.06989493 0.07937455 -0.031118399
000050 dc a7 8a bd e9 ba 96 bd 7f 27 47 bc d3 01 14 bd
       -0.06770298 -0.07359869 -0.012155413 -0.036134552
000060 41 10 45 3d 5b 97 2a bd 4b 8c 88 bb 0d cf 24 3b
       0.048111204 -0.04164825 -0.004167115 0.0025147826
000070 bd f6 63 3d 91 59 27 bd 02 1e 9d 3c cc 31 6c 3d
       0.05565523 -0.0408569 0.019179348 0.057664678
000080 3e 41 80 ba 04 63 96 bd 76 a1 a2 bd a7 08 cd bc
       -0.0009785069 -0.073431045 -0.079409525 -0.02502854
000090 48 73 b1 3b e0 a9 9d 3c ae 8d 4d bd a3 2e 82 3d
       0.005415354 0.019246042 -0.050183944 0.063565515
0000a0 71 23 86 bd c2 8a 69 bd 16 a1 50 bd ff 99 36 3c
       -0.06549729 -0.057017095 -0.050934874 0.011145114
0000b0 3d a9 85 bb 14 0e 58 bd 28 4b 62 3d 6c 2d d0 3c
       -0.0040790127 -0.0527478 0.055247456 0.025412284
0000c0 cc e5 09 bd 8f 71 91 bd b3 09 44 bd 31 1d c0 bb
       -0.033666417 -0.07101738 -0.047860812 -0.005862855
0000d0 4a fe 2e 3b 41 63 55 bd 93 d3 8e bd 0e 20 a3 bc
       0.002670186 -0.05209661 -0.06973948 -0.019912746
0000e0 78 68 c4 3c 77 0e 48 bd 91 ef 6a bd 78 77 08 3c
       0.023975596 -0.04884192 -0.057357375 0.008329265
0000f0 9a 6b ca bc 15 06 bd bc 5c 2c 8f bd 9e a4 63 bc
       -0.024709512 -0.02307419 -0.06990883 -0.013894228
000100 39 a4 8d 3d 17 85 38 bd 06 aa 85 bb 77 a4 49 3d
       0.069160886 -0.0450488 -0.0040791063 0.04922911
000110 5f 2c d2 39 7a d0 60 bd 4d c0 a3 bd b4 9f 17 3d
       0.0004008738 -0.05488632 -0.07995663 0.03701754
000120 90 89 8a 3d 08 5a 21 3d 8a e5 8e 3d 58 eb 59 3d
       0.06764519 0.0393925 0.06977375 0.053202957
000130 db af 95 bc fa fc 9e bd 35 14 31 bd 1a 42 a6 3d
       -0.018272331 -0.07763095 -0.04323216 0.081180766
000140 f0 f8 3d bd 11 97 83 bd bd 30 22 3c d4 79 54 bd
       -0.046379983 -0.06425298 0.009899315 -0.051873997
000150 df 93 87 3b d2 4e 04 bd 28 5d 74 3d 55 8d 0a bd
       0.0041375007 -0.03230173 0.059659153 -0.03382619
000160 7f 8d 90 bd 8a a8 bb ba 82 e4 99 bb ea 44 59 bd
       -0.07058238 -0.0014317196 -0.0046964297 -0.053044237
000170 2c 39 aa 3b 1b 1a 53 3c 44 d8 66 bd 8e 9e e9 3c
       0.0051948037 0.012884642 -0.05635859 0.028517988
000180 34 de 3f bc 48 c4 b4 3c 8c a7 41 3b 51 71 0c bc
       -0.011710692 0.02206625 0.0029549329 -0.008571939
000190 8b 52 7c bc eb 3f 9b bc 6e 13 1a 3d f2 33 a3 3c
       -0.015400539 -0.018951377 0.037616186 0.01992223
0001a0 23 70 c0 bb 43 8e 80 3d b5 93 62 3d 24 f0 b6 3c
       -0.0058727427 0.06277134 0.055316646 0.022331305
0001b0 40 da f6 3c 5c 1d 15 bd 1b f4 03 3c 1d 61 39 3d
       0.030133367 -0.036404952 0.008053805 0.04525863
0001c0 72 fd 5d bd e9 b7 b0 3c b2 ac 5e 3d c8 45 9a bb
       -0.054196782 0.02157207 0.054363914 -0.0047080256
0001d0 34 04 99 bd f4 17 8d bd 5e a3 88 3d 4b fb 89 3d
       -0.07471505 -0.06889334 0.06671785 0.067373835
0001e0 94 cc 99 bd 50 71 88 3d e2 52 68 bd 1a 57 41 3d
       -0.07509723 0.06662238 -0.05671967 0.047202207
0001f0 80 a6 74 bc 87 78 d6 3c 09 11 44 bc 75 71 95 bd
       -0.014932275 0.026180519 -0.011966952 -0.07297031
000200 47 93 5b bd af f2 10 3d c0 ac 9a 3d 30 d4 99 3d
       -0.05360725 0.03538769 0.07552481 0.07511175
000210 36 d2 fa bc ba b4 74 3d 77 d2 a9 bb 04 e9 8b bd
       -0.030617815 0.059742667 -0.00518256 -0.068315536
000220 71 e7 ad bc 17 5b 67 bc 30 6f cd bc bb 05 d6 bc
       -0.021228524 -0.014120839 -0.025077432 -0.02612578
000230 99 ff 15 3c dd 83 98 3d ab 95 8a bd 2f 2e a4 3c
       0.0091551775 0.07447026 -0.06766828 0.020041553
000240 9a d9 10 bd 1d 8b 4f bd e5 38 6a bc 79 a2 54 bd
       -0.03536377 -0.05066978 -0.014295791 -0.05191276
000250 15 77 0a bc fc 20 82 bc 2f 67 de bc 58 96 91 bd
       -0.008451243 -0.015884869 -0.027148811 -0.07108754
000260 f7 ab a4 bd f5 1b 9b 3d d1 0f 85 3d 3e 34 7f bb
       -0.08040612 0.07573692 0.06497157 -0.003894105
000270 75 50 80 3d 6d 7f e0 bc 5f a0 75 bc d7 e5 43 bd
       0.06265346 -0.027404511 -0.014991849 -0.047826614
000280 1f ed 80 3d 75 b6 36 bd d2 59 f6 bc de d2 0d bd
       0.06295227 -0.0446076 -0.030072127 -0.034624927
000290 dc 81 0d 3d bb c8 9e bd 47 93 7a 3d 6c 12 2c 3a
       0.03454767 -0.0775313 0.06117561 0.00065640244
0002a0 60 2d e5 3c 03 24 05 bd be db 88 3d a5 f5 00 3d
       0.027975738 -0.032505047 0.066825375 0.031484265
0002b0 3d 41 0f 3d 07 12 33 bc 26 4d 6d bb de 10 3d 3d
       0.034974325 -0.010929591 -0.0036209314 0.046158664
0002c0 23 f1 97 3d 0b 1f 38 bd b2 87 5f 3c d0 2f 51 bd
       0.0741904 -0.04495148 0.013643192 -0.05107099
0002d0 3a b3 05 bd 86 c1 2b bd 18 e0 50 3c 5a 19 70 3c
       -0.032641627 -0.041932605 0.012748741 0.014654482
0002e0 15 f1 a0 3c be 38 2c 3c ef b6 fd 3c e6 4b 2c bc
       0.019646207 0.010511575 0.030971019 -0.0105161425
0002f0 4f e4 1e 3d 48 ba 5d bd a0 db 8a bd aa 0e 62 3a
       0.03879195 -0.05413273 -0.067801714 0.0008623401
000300 f2 91 88 bd 27 8d 5e 3d 92 7b 24 3d fa da 05 3d
       -0.06668462 0.054333832 0.04015691 0.032679535
000310 48 b9 85 3d ca ce c2 bc 38 ee 79 bd ea c0 e6 3c
       0.0652948 -0.023780245 -0.0610182 0.02816816
000320 f9 7e 4c bd 8d 41 71 bc d9 b6 a1 bd 10 93 88 bd
       -0.049925778 -0.014725101 -0.078962035 -0.06668675
000330 7b 71 d5 bc 24 64 d2 3c f8 22 17 3c d7 fa 3e bd
       -0.026055088 0.025682516 0.009224646 -0.04662594
000340 9b f5 2d bd a9 2c 7a 3c 03 d7 51 3b 72 01 82 3d
       -0.042470556 0.015269437 0.0032019026 0.06347932
000350 b6 21 2b 3d 1b b9 c3 bc 85 a8 40 bd e1 18 02 bd
       0.041780196 -0.023891976 -0.047035713 -0.031762008
000360 67 98 92 3d d0 c3 0b 3d 87 6c 93 3c 7c e0 25 3c
       0.07157975 0.03412229 0.017996086 0.010124322
000370 ff 51 72 3d 47 94 39 3d d0 fe 7a 3d f1 fa 32 3d
       0.05916023 0.045307424 0.061278164 0.043696348
000380 3c 67 ea 3c be 3b 7e bd 96 ee 8f 3d b6 69 3c bd
       0.02861368 -0.062068693 0.070279285 -0.04599925
000390 84 5f 2f 3b be 42 c7 bc 67 77 6e bd 58 91 a9 bc
       0.0026759813 -0.024323817 -0.05821934 -0.020699188
0003a0 70 c4 41 bd a5 ba 0d bd e9 fc 3b bd 28 97 ab 38
       -0.047306478 -0.034601826 -0.04589549 8.1820705e-05
0003b0 6f 59 7a 3d 5a 9c 82 3d dc 4f 31 3d 23 b4 fb 3c
       0.061120447 0.06377478 0.04328905 0.030725544
0003c0 64 a7 31 3c b9 64 9b 3d 47 39 73 bd 26 d0 7b bd
       0.010843132 0.07587571 -0.059380796 -0.061477803
0003d0 16 73 74 3b 53 e4 46 3d 53 65 05 bc 86 b3 ea 3b
       0.0037300042 0.04855759 -0.008141833 0.007162514
0003e0 e9 61 3a 3d 6b b9 8e 3d 8f eb c0 3c f5 9b 4f bd
       0.04550353 0.069689594 0.023549823 -0.05068584
0003f0 bf f0 69 3d f5 8a 9a 3d 2b 22 1f 3b 95 71 09 3d
       0.05711436 0.07546035 0.002428184 0.033555586

sequential/dense/MatMul_bias f4 [50]
000000 fd 56 35 bb 2a 38 4e 3b 9c 84 05 bb f5 55 24 3b
       -0.0027670257 0.0031466582 -0.002037323 0.0025075648
000010 5c 53 30 3a c1 97 19 3c ac 68 61 bb 1e ab 50 3b
       0.00067262887 0.00937456 -0.0034394665 0.0031840275
000020 bc 70 18 bb 27 e1 f3 bb c1 78 3d bb 62 df 49 bb
       -0.0023260554 -0.0074426117 -0.0028911086 -0.0030803313
000030 f4 0e 12 bc 25 f4 39 bb b4 63 0e bc 58 50 50 bb
       -0.008914698 -0.0028374281 -0.008690763 -0.003178617
000040 fb 22 29 bb f8 6f d2 bb 9c 83 ca 3b 60 6f 17 b9
       -0.0025808203 -0.006422039 0.00618024 -0.00014441973
000050 ce e9 85 bb 07 db 4a 32 6f 55 b9 3b 21 b5 95 3a
       -0.0040867096 1.1807749e-08 0.0056559364 0.0011421778
000060 43 3f 4e bb b7 29 15 bb 33 28 49 3b d6 f2 43 bb
       -0.0031470812 -0.002276046 0.0030694127 -0.002989938
000070 e2 d4 83 3a 9c ce 53 bb 77 51 42 bb e0 5a e5 3a
       0.0010057951 -0.0032319194 -0.0029650608 0.0017498396
000080 68 04 39 3a 5f 27 1a 3c b7 3b 96 3a bc e3 5a bb
       0.00070578465 0.009408801 0.0011461888 -0.00333999
000090 bb da 42 bb 8f 8b 45 3b 14 9a f8 3b 0f 58 53 bb
       -0.0029732424 0.0030142998 0.007586727 -0.0032248532
0000a0 e6 25 3e bb cf 78 2e 3c 2d eb 6e ba 0f d2 cc 3b
       -0.0029014288 0.01064892 -0.00091140234 0.006250627
0000b0 c7 b0 4f bb 8c 97 41 39 31 5a c0 3b b0 ca 18 39
       -0.003169106 0.0001846237 0.0058701267 0.00014571357
0000c0 fc b9 a0 bb ff 53 8c bb
       -0.0049049836 -0.004282474

sequential/dense_1/MatMul/ReadVariableOp/transpose f4 [15, 50]
000000 68 74 f2 3d 36 69 7f be 39 57 b2 bd 38 34 59 be
       0.11838609 -0.24942479 -0.08708043 -0.21211326
000010 a3 97 c8 3c c9 08 03 be 56 3a ab bc 39 45 ae bd
       0.024486369 -0.1279632 -0.02090184 -0.08509297
000020 cd 02 48 be 25 c2 1f 3e a3 9e b9 bd 58 b7 4e 3e
       -0.19532318 0.15601404 -0.09063461 0.20187128
000030 51 9e cb 3c 0d 74 91 bc e0 2b 94 be 62 7e 14 bc
       0.024855765 -0.017755533 -0.28939724 -0.009063335
000040 10 3b 66 3d 03 a2 a1 3d eb 0b c9 3d 8d 26 93 be
       0.05620867 0.078922294 0.09816726 -0.2874035
000050 f4 71 84 3e 75 09 8b 3e d9 71 40 3e 18 e5 99 3e
       0.2586819 0.27155653 0.1879343 0.30057597
000060 ea 7b 63 3e 63 36 e0 bd d5 65 0a be aa d8 54 3e
       0.22215238 -0.109478734 -0.13515408 0.20785776
000070 80 68 51 3e 25 87 85 be 52 b6 1e 3e aa c7 db 3c
       0.2045002 -0.2607967 0.15499237 0.026828606
000080 7d d7 96 be 1c 0c 9c 3e 1b 43 8a 3e a3 dd 8d 3e
       -0.2946128 0.3047799 0.27004322 0.27708158
000090 74 29 33 be b6 fe 00 3e 95 66 62 be e4 1d e2 bd
       -0.17496282 0.12597165 -0.22109444 -0.110408574
0000a0 3a 6f 1e 3e 73 ae 2c 3e 70 03 98 3d 4f 3f 59 3d
       0.15472117 0.16863422 0.07422531 0.05303889
0000b0 58 8f 8e 3e 87 38 4b be cc 47 a9 3d f7 68 6e 3e
       0.27843738 -0.19845782 0.08265647 0.23282228
0000c0 00 8d 0c 3e 30 50 64 be 3b 64 1a 3e 61 8a 04 3c
       0.13725662 -0.22296214 0.15077297 0.008089633
0000d0 73 c0 cd 3d 86 41 5f be 00 84 d4 bb 24 e1 4c 3d
       0.100464724 -0.21802339 -0.006485462 0.0500194
0000e0 f7 9a 90 be 64 bb c1 bd fc 89 b5 bd d9 36 71 3e
       -0.2824323 -0.0945957 -0.08864209 0.23556079
0000f0 3c 49 1b 3c 08 75 7a 3d 4f c5 97 3e ee 09 dd bd
       0.00947791 0.061146766 0.29642722 -0.107929096
000100 b1 72 eb 3c 24 92 60 3e f5 ca ea bc cc bd 71 3e
       0.028741213 0.21930748 -0.02866123 0.23607558
000110 9a 63 6f 3d 9b 5b 54 3e c3 52 2d 3e 21 73 52 be
       0.058444597 0.2073807 0.16926102 -0.2055173
000120 3a 81 0f be e9 c4 1b 3e 8c 41 69 3e 1e 98 83 3d
       -0.1401414 0.15211834 0.2277891 0.064254984
000130 20 9a 30 be e4 3d 87 bb 5a dc 23 3e 80 d2 6e 3c
       -0.17246294 -0.004127251 0.16002026 0.014576554
000140 cc fd 8c 3d 26 4e e0 3c 98 f9 04 bd db 88 82 3e
       0.068843454 0.027381014 -0.032464594 0.25495037
000150 c1 6a 10 3c 4e 82 80 3d a7 35 cb 3c e6 ec 47 be
       0.008814515 0.06274854 0.024805857 -0.19523963
000160 88 66 45 be 35 3c 5b 3e 72 aa 8c 3e dd 46 29 be
       -0.19277394 0.21409686 0.2747379 -0.16530938
000170 0e ff 4e be d2 ef 6b 3d b7 84 8f 3e 13 bc 9a 3e
       -0.20214483 0.057601757 0.2803094 0.30221614
000180 40 67 c5 3d 3b 56 35 bd aa 96 72 3c 3c c8 86 bc
       0.09638834 -0.04427169 0.014806429 -0.016452901
000190 c6 bc 7d 3e 8a cc 23 3c de 6b 78 be 62 d2 6b bd
       0.24779043 0.009997496 -0.24259898 -0.057573684
0001a0 70 8a 3f 3e ea 7a d1 3d bb 6a 1b 3e 2e 5d 2e 3e
       0.18705153 0.10228522 0.15177433 0.17027733
0001b0 fb 00 1b be f1 e3 32 be ac fe b5 3a 04 21 ca 3c
       -0.15137093 -0.17469765 0.0013885102 0.024673946
0001c0 f6 8c b8 bd 90 af 1c be 2b 17 15 be 73 56 fe 3d
       -0.09011261 -0.15301347 -0.14559619 0.12418833
0001d0 56 d2 97 be 53 36 0e be b9 7d 8b 3e b9 35 35 bd
       -0.2965266 -0.1388791 0.27244356 -0.044240687
0001e0 b1 08 2b be 75 9a f0 bc 20 25 24 3e d2 93 f0 3d
       -0.16702534 -0.029370526 0.16029787 0.117469445
0001f0 71 4f 88 be aa 3f 81 be 2c 66 58 3d f9 e7 67 be
       -0.2662311 -0.25243884 0.052831814 -0.22647084
000200 d9 09 79 3e 08 c4 a2 bd f8 e8 3f 3e 32 aa 0e 3e
       0.24320163 -0.07947546 0.18741214 0.13932112
000210 82 e9 02 3e 0f 88 61 3e 6e 82 85 3e 04 51 79 be
       0.12784389 0.22024558 0.26076072 -0.24347311
000220 f8 e1 45 be c3 a6 ef 3d b0 35 6e 3e 52 93 58 be
       -0.19324481 0.11701729 0.23262668 -0.21149948
000230 83 29 79 3d cf c4 93 3d 02 9b 9c bc 6d 60 05 bd
       0.060830604 0.07215273 -0.019116882 -0.032562662
000240 86 ff 17 3e 64 a9 c3 3d 9e 20 84 3e 31 75 8f 3e
       0.14843568 0.09553793 0.25806135 0.28019097
000250 b3 72 21 3e 04 2a 8e 3e eb 61 29 bc 0b ef e8 bd
       0.1576641 0.2776643 -0.010338287 -0.11373719
000260 46 90 0e be 48 db 8b bc 56 45 90 3e c8 2d ad bc
       -0.13922223 -0.017072335 0.281779 -0.021139994
000270 42 ed 58 be 80 4c 24 3e 6b 54 6c be 9d c7 64 3e
       -0.21184257 0.16044807 -0.23079078 0.22341771
000280 49 6d b1 3d a3 23 44 be 07 b2 29 3e 4c 35 1c bd
       0.086634226 -0.1915422 0.16571818 -0.038136765
000290 c5 85 76 bc a8 ab 15 bd 0b 42 eb bd 67 52 0d bd
       -0.015046542 -0.036540657 -0.11487206 -0.034502413
0002a0 94 15 2c be cd b5 0c 3e 93 44 81 be 1c 9e 97 3d
       -0.16805106 0.13741226 -0.2524763 0.07403204
0002b0 3a d0 c4 3d 68 46 61 be e4 d7 7c be cc ca 81 3e
       0.096100286 -0.21999514 -0.2469173 0.25350034
0002c0 64 98 4d be 08 73 3d 3e c2 3c ab bd 58 56 5c be
       -0.20077664 0.18500912 -0.08361198 -0.21517313
0002d0 de 29 88 bc 08 af 09 be 64 37 83 3e 26 61 67 be
       -0.016621526 -0.13445675 0.25628197 -0.22595653
0002e0 0d 54 ac bd 85 c8 de 3d 76 73 8a 3d f7 1c 80 bc
       -0.08414469 0.1087809 0.06760304 -0.015638812
0002f0 a3 be 74 3d 03 cf 48 bd 7b 4b 40 be 0d d7 57 3d
       0.059752118 -0.049025547 -0.18778794 0.052695323
000300 92 35 ee 3d d9 3f 63 be 98 0b aa 3d b0 e1 fd bc
       0.116313115 -0.22192325 0.083029926 -0.030991405
000310 ca d6 1d bb 44 99 3b 3e a5 11 fd bc d3 e4 1e 3d
       -0.0024084323 0.18320185 -0.030892203 0.038792443
000320 bb 32 90 3e b2 7a 83 3e 64 e8 20 3e 40 41 af 3d
       0.28163704 0.25679547 0.1571365 0.08557367
000330 36 62 38 be b3 8d fd bd c5 c4 2f be e0 97 de bc
       -0.18006214 -0.123805426 -0.17164905 -0.027172029
000340 12 0b 7e be 3c 0f 6a be 16 dc c9 3d 24 58 d1 bc
       -0.2480891 -0.22857374 0.09856431 -0.025554724
000350 e0 24 46 3e 39 17 04 be bf 98 fb 3c f2 68 1d 3e
       0.19350004 -0.12899484 0.030712483 0.15372065
000360 06 b2 83 be 2f 72 89 be 36 57 ac bd bf 5e 83 be
       -0.2572176 -0.26844928 -0.08415072 -0.25658223
000370 d0 9b c1 3d f8 c4 2b 3d 9d be 82 3e 5a 84 8d 3e
       0.09453547 0.04193589 0.2553605 0.2764004
000380 28 f7 c6 3d 98 6f 08 3d 76 ca c6 bc bd f2 c4 bd
       0.0971511 0.03330955 -0.024266463 -0.09616611
000390 5d 94 36 3e bc 25 35 3e ed 46 8f be 1e 5e 32 bd
       0.17830034 0.17690176 -0.279838 -0.04354679
0003a0 18 09 61 be 2a 76 6d be f1 15 84 3e ce 4e 5b be
       -0.21976125 -0.23189607 0.2579799 -0.2141678
0003b0 30 74 f2 3c 5c 22 04 be b3 b3 28 be e6 8e 8b bd
       0.029596418 -0.12903732 -0.164748 -0.06814365
0003c0 66 a5 c0 3d 9e 1d 8f 3e 70 96 16 3d 83 36 58 bd
       0.09406547 0.27952284 0.036764562 -0.05278636
0003d0 47 6c cf bb c0 a8 8b be 86 a0 d9 3d fb c2 72 3e
       -0.0063300463 -0.27277184 0.106263205 0.23707192
0003e0 c6 f0 c1 bd 6c 8b 64 3e 75 fe 10 3e 06 e4 b3 3d
       -0.09469752 0.2231881 0.14159568 0.087837264
0003f0 43 42 95 3d 8a 3c 47 be 5e 6d c2 3b c3 58 8e 3d
       0.07288029 -0.19456688 0.0059334477 0.06950524

sequential/dense_1/MatMul_bias f4 [15]
000000 96 c5 a9 b7 ca 53 d2 bb c3 f4 c3 3b a5 4e 1b bc
       -2.0238378e-05 -0.00641868 0.0059801056 -0.0094792
000010 ff 8e 4a 3b 88 61 b8 3b 87 8c a8 bb 80 47 a5 bb
       0.0030907986 0.005626861 -0.0051437053 -0.005043924
000020 90 a7 9a 3a 32 87 48 bb 5c cb 4f bb 1e 39 d4 3b
       0.0011799205 -0.003059816 -0.0031706905 0.0064765355
000030 20 00 2e bb 3e aa 5f 28 f5 89 e1 bb
       -0.0026550367 1.2415902e-14 -0.006882901

sequential/dense_2/MatMul/ReadVariableOp/transpose f4 [3, 15]
000000 5d f9 57 3e 38 8e 9b 3e 3d e8 a5 be fd 7f fd 3e
       0.21091218 0.30381942 -0.32403746 0.4951171
000010 ca 07 03 be f4 5f 1e be 33 db ba 3e 60 ce ac 3d
       -0.1279594 -0.1546629 0.3649536 0.084378004
000020 6b e1 cc be 23 1b a7 be 3b 93 ec 3e 82 33 8d be
       -0.4001573 -0.3263789 0.46206078 -0.2757836
000030 f1 54 c9 bd 6c d3 7a 3e e4 5e c0 3e c8 0e 38 3e
       -0.098306544 0.24494714 0.37572396 0.17974389
000040 b6 c2 8a be 90 25 29 be 80 cb 03 3f 7a 6d aa 3e
       -0.27101678 -0.16518235 0.5148239 0.3328665
000050 8e 7e ad 3e 09 ab 5a bd 1f c0 07 bf 78 c6 18 3e
       0.33885616 -0.053385768 -0.5302753 0.1491946
000060 4f 1a e9 3e f9 6d 18 3e 9e a9 f1 3e de 8b 55 3e
       0.45527884 0.14885701 0.4719972 0.20854136
000070 42 02 04 3f 5f 8c 7a 3e 03 b2 90 3e c1 3d c1 be
       0.51565945 0.2446761 0.28260812 -0.37742427
000080 f9 d8 d3 3e b1 f7 a6 3e e7 63 ac 3d 76 ad 11 3e
       0.41376474 0.3261085 0.08417492 0.14226326
000090 59 56 99 3e cd d0 46 3d 28 f4 be be 20 4a 06 3f
       0.2994869 0.04853897 -0.3729565 0.52456856
0000a0 39 1e 17 3e 0a 87 5b 3e 5b e8 6f be d0 0b 96 3e
       0.14757623 0.21438232 -0.2342848 0.29305887
0000b0 18 9e 3a 3e
       0.1822437

sequential/dense_2/MatMul_bias f4 [3]
000000 0e 63 cf bb 74 53 71 3a 8d 02 1b 3c
       -0.006328947 0.0009205856 0.009461057
